model_episode_355.pth (torch_old, 88573 bytes, 6 tensors)

fc1.weight f4 [128, 37]
0	0x3e465228	0.19367278
1	0xbebf1862	-0.3732329
2	0xbeadb271	-0.33925202
3	0xbedf13f2	-0.43569905
4	0xbf793498	-0.97345877
5	0x3d47dd08	0.048794776
6	0xbdcde8b9	-0.10054154
7	0x3df31def	0.11870944
8	0xbd9821f5	-0.07428352
9	0x3d6afec3	0.057371866
10	0xbdbafcd1	-0.09130252
11	0xbdf77383	-0.12082579
12	0xbdae7b02	-0.08519556
13	0xbe4574dd	-0.19282861
14	0xbe320577	-0.17384897
15	0xbd11e252	-0.035616226
16	0x3c4a9d11	0.012366549
17	0x3de58f90	0.11209023
18	0xbe362970	-0.17789245
19	0x3d30b2a5	0.04313912
20	0x3ca840a7	0.020538641
21	0x3cfe9952	0.031078968
22	0xbda0d7cd	-0.07853661
23	0x3c8a2051	0.016861113
24	0xbe45982b	-0.19296329
25	0xbde90caf	-0.11379372
26	0x3e155061	0.14581443
27	0xbefaa07f	-0.48950574
28	0x3d12aa61	0.035807017
29	0xbe1398bf	-0.14413737
30	0xbe5de391	-0.21668841
31	0x3e11dc36	0.1424416
32	0x3d312879	0.04325149
33	0xbea646b6	-0.32475823
34	0x3d202ebf	0.03910708
35	0xbe240ddc	-0.16020912
36	0xbd1c55c7	-0.03816774
37	0x3d0e4d72	0.034741826
38	0xbd349f4e	-0.044097237
39	0x3dcf9033	0.10134926
40	0xbd3349e4	-0.04377164
41	0xbebda5b6	-0.3704049
42	0xbd5024a1	-0.050816182
43	0xbdb93a9f	-0.09044384
44	0xbe18da96	-0.14927134
45	0xbe269f95	-0.16271813
46	0x3d90dca6	0.07073335
47	0xbd180c90	-0.037121356
48	0xbcc68dff	-0.02423763
49	0x3b69bd74	0.0035665901
50	0xbd49c31a	-0.04925833
51	0xbd1ef51a	-0.038807966
52	0xbd97dc07	-0.07415014
53	0xbde617ec	-0.112350315
54	0x3e1007e3	0.14065509
55	0xbe0ec4f1	-0.13942315
56	0xbeac62fe	-0.33669275
57	0xbe56240a	-0.20912185
58	0xbeae8024	-0.3408214
59	0x39c1bcbc	0.00036952447
60	0xbe0f5912	-0.13998821
61	0xbe29e963	-0.16592936
62	0xbe41ba44	-0.18918711
63	0xbda24efd	-0.07925222
64	0x3e102eca	0.14080349
65	0xbe8f5acd	-0.27998963
66	0xbe9013c2	-0.28140074
67	0xbe06ff66	-0.13183364
68	0xbc0a643a	-0.008446747
69	0x3e29b1a2	0.16571668
70	0xbd2c23a1	-0.042026166
71	0xbeb9c0d2	-0.36279923
72	0x3e0febe6	0.14054832
73	0x3d13f35a	0.03612075
74	0x3d68ba66	0.05681839
75	0x3dfcbe89	0.12341029
76	0x3dcd9830	0.10038793
77	0x3a26647f	0.00063473725
78	0x3d988f76	0.07449238
79	0xbec3b834	-0.38226473
80	0x3d10b2e8	0.03532687
81	0x3e4dd935	0.20102389
82	0x3be7a15c	0.007068796
83	0xbd9da8eb	-0.07698234
84	0xbd1c8a26	-0.038217686
85	0xbd8c6ff3	-0.0685729
86	0xbd0b8e80	-0.034071445
87	0x3d782d53	0.0605901
88	0x3e1bdcff	0.15221022
89	0xbe899f9e	-0.2687959
90	0x3d9dca7c	0.077046365
91	0x3d9b885e	0.07594369
92	0x3e38bf09	0.18041624
93	0x3c481229	0.012211361
94	0xbe87f417	-0.26553413
95	0x3c943205	0.018090257
96	0x3d149e1d	0.0362836
97	0xbd153f24	-0.03643717
98	0xbd0fec63	-0.035137545
99	0xbebf91c3	-0.37415895
100	0x3e3c8172	0.18408754
101	0x3e290a87	0.16507922
102	0x3cbb816f	0.022888867
103	0xbe4bd3ec	-0.1990506
104	0xbe7c7af8	-0.24656284
105	0x3cc9986c	0.024608813
106	0xbd961dd4	-0.07329908
107	0xbc83ab3f	-0.016072867
108	0x3ca835c8	0.020533457
109	0x3aa5c670	0.001264764
110	0xbc4c1c27	-0.012457884
111	0x3e2bbdb1	0.1677158
112	0xbe1af430	-0.15132213
113	0x3e1e963c	0.15486997
114	0x3d71d6a7	0.0590426
115	0xbe82c9c7	-0.2554457
116	0x3cad3e78	0.021147951
117	0xbc8ce9b8	-0.01720129
118	0x3d2f8aa6	0.042856835
119	0xbda12d35	-0.07869951
120	0xbdd0e27d	-0.10199449
121	0x3d1ce52a	0.038304485
122	0x3d04834b	0.032351773
123	0xbc330061	-0.010925383
124	0xbdbe70a9	-0.09298832
125	0xbe1d4666	-0.15358886
126	0x3c85ee9b	0.016349128
127	0xbdf97ca9	-0.1218198
128	0xbcd7d78d	-0.0263479
129	0xbe7596ee	-0.23983356
130	0xbdad62c2	-0.08466102
131	0x3e001184	0.12506682
132	0xbd5daf3c	-0.054122195
133	0xbbf74c67	-0.0075469497
134	0xbdb5d4de	-0.08878492
135	0xbe457535	-0.19282992
136	0x3d4cd3eb	0.05000679
137	0x3d1664e5	0.036717314
138	0xbd4cda2b	-0.05001275
139	0x3de25d40	0.11052942
140	0xbb4bed03	-0.0031116612
141	0x3e64987a	0.2232379
142	0x3ddf91d1	0.10916484
143	0xbe0ae7fa	-0.13565055
144	0xbe7cb152	-0.24677017
145	0xbef816c4	-0.4845487
146	0xbca3ba56	-0.019986313
147	0x3b199460	0.0023434386
148	0xbe188103	-0.14892964
149	0xbe59b3a6	-0.21259937
150	0xbdbb5e6a	-0.091488674
151	0xbe07541a	-0.13215676
152	0xbd2695b6	-0.04067012
153	0x3de67c59	0.11254186
154	0x3d45db75	0.048304994
155	0xbe98959a	-0.29801637
156	0xbe51ede7	-0.20500909
157	0xbf6aefd2	-0.91772187
158	0xbded9354	-0.11600366
159	0x3d8aefa7	0.06783991
160	0xbdbcb65b	-0.09214469
161	0xbe11860d	-0.14211293
162	0xbdbdc1b4	-0.092654616
163	0xbe18a83a	-0.14907923
164	0xbcca854f	-0.02472177
165	0x3af803c5	0.0018922022
166	0xbdf7dfc9	-0.121032305
167	0x3d8c9b52	0.068655625
168	0xbe82d2d5	-0.25551477
169	0xbd5fdbbe	-0.05465292
170	0x3e44b77c	0.19210619
171	0xbcc5de68	-0.024153903
172	0x3e405e13	0.18785886
173	0x3e007243	0.12543587
174	0xbe3f2a2d	-0.18668433
175	0xbe2e232e	-0.17005607
176	0xbdc9745d	-0.09836648
177	0xbf1aa5aa	-0.60409033
178	0x3dcf6100	0.10125923
179	0xbdaf8537	-0.085703306
180	0xbde20afa	-0.1103725
181	0x3d095d80	0.033536434
182	0xbd1dd53c	-0.038533434
183	0x3dcaf4f8	0.09910005
184	0x3c481a32	0.012213277
185	0x3a6838b0	0.0008858545
186	0xbd088eb0	-0.033339202
187	0xbbf64e37	-0.007516648
188	0x3d11c994	0.03559263
189	0x3d9811f5	0.074253
190	0x3d7d3852	0.06182129
191	0x3dcd1eef	0.10015666
192	0x3df0cf5c	0.11758301
193	0x3d89a79b	0.06721421
194	0xbc294fa2	-0.010333927
195	0xbcc452da	-0.023965288
196	0xbc0bab53	-0.008524734
197	0xbd024aa6	-0.03180947
198	0xbd24eda0	-0.04026568
199	0x3d70e7b6	0.058814727
200	0xbbf27e86	-0.0074003367
201	0x3d0c15c9	0.034200463
202	0xbb6c69b0	-0.0036073737
203	0xbc125261	-0.0089307735
204	0x3c444a38	0.011980586
205	0x3e00eb43	0.12589745
206	0x3e0bb7a5	0.13644274
207	0x3d2632ac	0.04057567
208	0x3d303d36	0.043027125
209	0xbda249f9	-0.079242654
210	0xbce149a6	-0.027500939
211	0x3c1fccc8	0.0097534135
212	0x3ccdc237	0.025117023
213	0x3d89e8af	0.06733834
214	0x3e124760	0.1428504
215	0x3e3f723f	0.18695925
216	0xbed02d9b	-0.40659794
217	0xbef0c055	-0.47021738
218	0xbec54e50	-0.3853631
219	0xbfb81bb4	-1.4383454
220	0x3b2de66f	0.0026535054
221	0xb911346c	-0.00013847806
222	0x3e5d06af	0.21584581
223	0xbd908091	-0.07055772
224	0xbe69ba65	-0.2282501
225	0xbe812698	-0.25224757
226	0xbf9d26a1	-1.2277414
227	0xbe12532d	-0.14289542
228	0xbd386393	-0.045016836
229	0x3c089953	0.008337337
230	0x3d127f63	0.035766017
231	0x3ded9d69	0.11602289
232	0x3d71eeaf	0.059065517
233	0x3aaa31e6	0.0012984842
234	0x3cbcc503	0.023043161
235	0x3ddb080c	0.10694894
236	0x3ddaac7c	0.1067743
237	0xbe320630	-0.17385173
238	0xbd7c7675	-0.061636407
239	0x3cc66722	0.0242191
240	0x3cd1b1f7	0.025597556
241	0x3e1b2fd5	0.15154965
242	0xbd705f41	-0.05868459
243	0xbc94a1bb	-0.018143525
244	0xbbd6210e	-0.006534702
245	0x3d1be234	0.03805752
246	0x3ddd320a	0.1080056
247	0xbdf2333d	-0.11826179
248	0xbca3a6d1	-0.019977005
249	0xbd32d6f1	-0.043662015
250	0xbd967b0f	-0.0734769
251	0xbdbc4257	-0.09192341
252	0xbd82ea81	-0.06392384
253	0x3c8e446e	0.017366614
254	0xbc78f90d	-0.015196097
255	0xbd0fb0d9	-0.035080764

fc1.bias f4 [128]
0	0xbd7b0c83	-0.06129123
1	0xbd23f402	-0.040027626
2	0xbe1025b0	-0.14076877
3	0xbce23470	-0.027612895
4	0xbd658501	-0.056035046
5	0xbd892b7e	-0.066977486
6	0x3d0077ae	0.031364135
7	0x3d1a1cf2	0.03762526
8	0xbe2eff5f	-0.17089604
9	0xbd037a10	-0.03209883
10	0xbdfffbf1	-0.12499226
11	0xbdcaf58c	-0.099101156
12	0xbe25dd6e	-0.1619775
13	0xbe564dad	-0.20928068
14	0xbe4b4f60	-0.19854498
15	0xbdaabce3	-0.083368085
16	0xbc4acc52	-0.012377815
17	0xbcb44ffb	-0.022010794
18	0xbe1a38c3	-0.15060715
19	0xbe09502c	-0.1340949
20	0xbdbbe5de	-0.09174703
21	0xbc811adc	-0.015759878
22	0x3ce6fd52	0.028196964
23	0xbd17e197	-0.037080374
24	0xbcdb538d	-0.026773239
25	0x3da168a6	0.07881288
26	0x3d3d0693	0.046148848
27	0xbd316dc8	-0.043317586
28	0xbe4fd370	-0.20295501
29	0xbddd3987	-0.10801988
30	0x3b3924e4	0.0028250748
31	0x3d5ef0a4	0.05442871
32	0xbe341239	-0.17585076
33	0xbdb05417	-0.08609789
34	0x382c257f	4.1042917e-05
35	0xbe37883c	-0.17923063
36	0xbdd9f29d	-0.10641978
37	0x3d530005	0.05151369
38	0x3c958139	0.018250095
39	0x3d901b90	0.07036507
40	0xbcb99bca	-0.022657294
41	0x3d15a7dd	0.03653704
42	0x3db24bc3	0.08705857
43	0xbd8e2e2f	-0.069424026
44	0x3d558e5c	0.052137718
45	0xbe333f7d	-0.17504688
46	0xbb7efeb5	-0.0038909141
47	0xbe05e20f	-0.13074516
48	0xbdf92e6d	-0.12167058
49	0x3db0badb	0.0862939
50	0xbcd241f2	-0.02566621
51	0x3d5586fb	0.05213068
52	0xbd0c95b1	-0.034322444
53	0x3d1ca082	0.03823901
54	0xbdae79ab	-0.085193
55	0x3cc99f7a	0.024612177
56	0xbdc65940	-0.09684992
57	0xbde94f0a	-0.11392029
58	0xbbb47d9b	-0.0055081374
59	0xbe35d725	-0.17757852
60	0xbe6fe241	-0.23426153
61	0x3c86d907	0.016460909
62	0xbd3fde36	-0.046842776
63	0xbe5ddefa	-0.2166709
64	0x3dca7b4f	0.098868005
65	0xbd9aed7b	-0.07564827
66	0xbd4c18e6	-0.049828433
67	0xbdea8a61	-0.11452175
68	0xbe74010f	-0.23828529
69	0xbe09b637	-0.13448416
70	0xbca427d5	-0.020038525
71	0xbe1114c1	-0.14168073
72	0xbd0a6606	-0.033788703
73	0xbe282a1c	-0.16422313
74	0xbdf1a172	-0.117983714
75	0xbd5af513	-0.053456377
76	0x3e062039	0.1309823
77	0xbde701d0	-0.112796426
78	0x3d0ff478	0.035145253
79	0xbd584d46	-0.05280807
80	0xbd2cc71b	-0.04218207
81	0xbd8add6a	-0.06780513
82	0x3cd2966d	0.025706494
83	0xbdaeaa54	-0.08528581
84	0xbd3146ae	-0.043280296
85	0x3d9b5dad	0.075862266
86	0x3d85bb33	0.06529846
87	0xbe1469fd	-0.14493556
88	0x3da937af	0.08262574
89	0xbcacfa87	-0.021115554
90	0x3dc5e596	0.09662931
91	0xbd6e7745	-0.058219213
92	0xbe440836	-0.19143757
93	0xbe3e12af	-0.18561815
94	0xbdcaf799	-0.09910507
95	0x3da6b1cd	0.081393816
96	0xbdf6480e	-0.12025462
97	0xbe5ce7b4	-0.21572763
98	0xbe058feb	-0.13043182
99	0xbc499f0f	-0.012305989
100	0xbe3a5bd4	-0.18199092
101	0xbe702089	-0.23449911
102	0x3d762c98	0.06010112
103	0x3e17b39c	0.1481461
104	0xbe4e656b	-0.20155875
105	0xbe88be53	-0.26707706
106	0xbe5bfa85	-0.21482284
107	0x3db0bf26	0.08630209
108	0xbe53f5e6	-0.20699272
109	0xbdcd05f8	-0.10010904
110	0x3d2126d7	0.03934368
111	0xbdcbcbeb	-0.09951004
112	0xbe1cecdd	-0.15324731
113	0xbe42ec54	-0.19035465
114	0xbd780f8c	-0.0605617
115	0x3d778697	0.06043109
116	0xbda430e3	-0.08017137
117	0xbb0b4844	-0.002125279
118	0x3cfda93d	0.030964488
119	0xbdbf60cb	-0.09344634
120	0xbd9057a1	-0.07047964
121	0x3d25f426	0.04051604
122	0xbd0c0aa0	-0.03418982
123	0xbe206aee	-0.1566579
124	0xbdfdd7dc	-0.123946875
125	0x3d804d6d	0.06264768
126	0x3d838540	0.064219
127	0xbcb8d913	-0.022564447

fc2.weight f4 [128, 128]
0	0xbdf0ec5d	-0.11763833
1	0x3cd67498	0.026178643
2	0xbda1b367	-0.078955464
3	0x3d593aa1	0.05303443
4	0x3e0baa85	0.13639267
5	0x3d13f6a8	0.0361239
6	0x3afa065b	0.001907538
7	0xbd789afb	-0.060694676
8	0x3dcdcbd3	0.10048642
9	0x3d54b70e	0.051932387
10	0x3e85ba52	0.26118714
11	0x3e0c2ae7	0.13688241
12	0x3da3768a	0.07981594
13	0xbd89cb89	-0.067282744
14	0xbdeba129	-0.11505348
15	0xbd54d982	-0.051965244
16	0xbcc27568	-0.023737624
17	0xbb8100fa	-0.003936884
18	0x3d96c934	0.07362595
19	0xbd2efa91	-0.042719427
20	0x3dc272f1	0.094945796
21	0xbc213e1e	-0.00984147
22	0xbd3f86d5	-0.046759445
23	0xbdc0f75e	-0.094221815
24	0x3cb6983e	0.022289392
25	0xbd14c2c5	-0.03631856
26	0xbdedcf0b	-0.11611756
27	0xbd79fd3f	-0.06103253
28	0x3d552a15	0.052042086
29	0x3cec1b13	0.028821504
30	0xbe2f06a2	-0.17092374
31	0x3d8749a5	0.066058435
32	0x3d999d1b	0.075006686
33	0xbda2988f	-0.079392545
34	0x3e3b4b24	0.18290383
35	0xbd87256e	-0.06598936
36	0x3d0b44ec	0.034001276
37	0x3cc9e9e2	0.024647657
38	0x3e278fd6	0.16363463
39	0x3d5cef67	0.05393925
40	0xbda15156	-0.07876842
41	0x3db4c0a9	0.088258095
42	0xbd936f3b	-0.0719895
43	0xbc632d72	-0.0138658155
44	0x3e07ffe9	0.13281216
45	0xbdc1a785	-0.0945578
46	0xbd3db9bc	-0.04631971
47	0xbe07f453	-0.13276796
48	0x3d6e4047	0.05816677
49	0x3d2da640	0.042394876
50	0x3d9b5e40	0.07586336
51	0x3d093290	0.033495486
52	0xbdce636d	-0.10077558
53	0x3d85a5e5	0.065257825
54	0xbc868f02	-0.016425613
55	0x3e26d81a	0.16293374
56	0xbe051de3	-0.12999682
57	0xbd0a2e1d	-0.033735383
58	0x3e1c8237	0.15284048
59	0x3cc3f23f	0.023919223
60	0x3d636346	0.055514596
61	0x3d1f0b6a	0.038829245
62	0x3c7c965f	0.015416711
63	0xbdb61907	-0.08891492
64	0xbe672ab8	-0.2257489
65	0xbc8b6401	-0.017015459
66	0xbc647e44	-0.01394612
67	0xbdbafcc5	-0.09130243
68	0x3d4b5071	0.04963726
69	0x3dc9500a	0.09829719
70	0x3dc0603a	0.09393354
71	0xbd758cbe	-0.059948675
72	0xbd07a8de	-0.03312003
73	0xbabe6694	-0.001452642
74	0xbde1823e	-0.1101117
75	0xbcc3c253	-0.023896372
76	0xbdd50ae4	-0.10402468
77	0xbd700d1f	-0.058606263
78	0xbd86e442	-0.065865055
79	0x3be87dfb	0.007095096
80	0xbc183f1c	-0.00929239
81	0xbd1ddcfd	-0.03854083
82	0xbe474874	-0.19461232
83	0x3cb6e634	0.022326566
84	0xbba78fdc	-0.005113585
85	0xbdeb64f2	-0.11493863
86	0x3e0ec84b	0.13943593
87	0x3c2ad7b3	0.010427403
88	0xbb6f7a50	-0.003654141
89	0x3d7eb4d1	0.06218416
90	0x3c857a7d	0.016293759
91	0xbd88677f	-0.06660365
92	0xbe006a02	-0.12540439
93	0xbd3d7e37	-0.046262946
94	0xbd40703e	-0.046982042
95	0x3a36a2c4	0.0006967003
96	0xbd79ced3	-0.06098826
97	0xbb9e9bc9	-0.0048403484
98	0xba75d08b	-0.00093770836
99	0xbe0db0fc	-0.13837045
100	0x3dbd9cb8	0.09258407
101	0xbd77c71b	-0.060492616
102	0x3d94e59f	0.07270359
103	0x3dc50c72	0.096215144
104	0x3e004513	0.1252635
105	0xbdbb693e	-0.09150933
106	0xbdd23ba8	-0.10265285
107	0xbd0e7d38	-0.034787387
108	0x3d9b316b	0.07577785
109	0xbd8cf4e6	-0.06882648
110	0xbb168bfb	-0.0022971618
111	0xbe131614	-0.14363891
112	0xbd8827d8	-0.066482246
113	0x3ca22121	0.019791188
114	0xbcc64989	-0.024204986
115	0x3d35edad	0.04441612
116	0x3b7cbe12	0.003856544
117	0x3be09378	0.006853517
118	0x3d2daace	0.04239922
119	0x3c1b2d07	0.009471185
120	0x3df44f7b	0.11929222
121	0xbc9b3fda	-0.018951345
122	0x3dcf180e	0.1011201
123	0xbdc76093	-0.09735217
124	0x3ca8c866	0.02060337
125	0xbd7d5166	-0.061845206
126	0x3d876d54	0.066126496
127	0x3d194419	0.03741846
128	0x3cffc632	0.031222437
129	0xbd559a9d	-0.052149404
130	0xbcebeca6	-0.028799366
131	0xbdd346f6	-0.10316269
132	0xbe192e0e	-0.14958975
133	0xbe6225cb	-0.2208473
134	0xbcf906ee	-0.030398812
135	0xbdac4f6b	-0.08413585
136	0x3d014ec5	0.03156926
137	0xbe103e23	-0.14086203
138	0xbe52a27f	-0.205698
139	0xbe2757eb	-0.16342132
140	0xbb619a54	-0.0034424262
141	0xbd788aa2	-0.060679086
142	0xbdc45278	-0.09586042
143	0xbd84ab8e	-0.06478034
144	0xbd156349	-0.03647164
145	0xbe2124b5	-0.15736659
146	0xbc91afab	-0.01778396
147	0xbe0553d5	-0.1302026
148	0xbd7b1510	-0.061299384
149	0xbc69bfe5	-0.014266943
150	0x3d346e99	0.044050787
151	0xbde5f061	-0.11227489
152	0xbe762ff0	-0.24041724
153	0x3c814dff	0.015784262
154	0x3cae93cd	0.021310711
155	0xbe201927	-0.15634595
156	0x3dc1c2a9	0.094609566
157	0xbe0cb497	-0.13740765
158	0xbda9ee76	-0.08297436
159	0x3d8b73fb	0.06809231
160	0x3c9d613e	0.019211408
161	0xbd10d10c	-0.035355613
162	0xbe6a6f2e	-0.22893974
163	0x3d33fae5	0.043940444
164	0xbc7fc00e	-0.015609754
165	0xbe7255c3	-0.23665528
166	0xbe4b8c90	-0.19877839
167	0xbedaa62e	-0.4270491
168	0xbe2b0319	-0.167004
169	0x3c8f3f70	0.017486304
170	0xbd9ca52e	-0.07648693
171	0xbd21ae1c	-0.039472684
172	0xbe3cb079	-0.18426694
173	0xbdc3439f	-0.09534382
174	0xbd03f010	-0.032211363
175	0xbc9061c2	-0.01762474
176	0xbe929bd8	-0.28634524
177	0xbe7b0396	-0.24513087
178	0xbe300faa	-0.17193475
179	0xbf1807ea	-0.59387076
180	0xbdb58743	-0.0886369
181	0xbe7304a1	-0.23732235
182	0xbd2ba1b6	-0.041902266
183	0xbe8a7b58	-0.2704723
184	0xbd67ed14	-0.05662258
185	0x3d098c29	0.033580933
186	0xbe8e6c0e	-0.27816814
187	0xbdc3b607	-0.09556203
188	0x3b9c8c63	0.0047774776
189	0xbea9b6e6	-0.33147353
190	0xbc2df574	-0.010617603
191	0xbb96a0ff	-0.004596829
192	0xbd29dd70	-0.041470945
193	0xbd0314e8	-0.03200236
194	0x3cdad712	0.026713882
195	0xbd9c0b95	-0.076193966
196	0x3d296c81	0.041363243
197	0x3c450725	0.012025629
198	0xbdf69fe9	-0.12042219
199	0xbdaa0d9e	-0.083033785
200	0xbd354671	-0.04425663
201	0x3d032d2f	0.032025512
202	0xbdaa35bf	-0.083110325
203	0x3d167edc	0.036742076
204	0x3ddd538b	0.1080695
205	0xbe3bd33b	-0.18342297
206	0xbbc23289	-0.0059264344
207	0xbd51b7d8	-0.051200718
208	0xbe512309	-0.20423521
209	0x3b819945	0.0039550387
210	0xbe033b12	-0.12815502
211	0xbec896e0	-0.39177608
212	0xbe5b4be4	-0.21415669
213	0xbd835e05	-0.06414417
214	0xbed51382	-0.41616446
215	0x3d7bf1ea	0.061510004
216	0xbdea1ad1	-0.11430896
217	0x3cc6ccb4	0.024267532
218	0xbe4db608	-0.2008897
219	0xbe044901	-0.12918474
220	0xbe04a602	-0.12953952
221	0xbe1f1da3	-0.1553865
222	0xbe06494e	-0.13113901
223	0x3dd91859	0.10600347
224	0xb905671f	-0.00012722284
225	0xbd948737	-0.07252353
226	0xbdf28ed3	-0.11843648
227	0xbc31c11b	-0.010849263
228	0xbc263da9	-0.010146537
229	0x3c0c7230	0.008572146
230	0xbed044c9	-0.4067748
231	0xbe64c853	-0.22342043
232	0xbdfeb719	-0.12437267
233	0x3c9d4070	0.019195765
234	0xbdd501b8	-0.104007185
235	0x3d3e696f	0.046487268
236	0x3cac4b35	0.021031955
237	0xbc9f8d94	-0.01947669
238	0xbb637eb9	-0.0034712984
239	0xbd03cd6b	-0.032178324
240	0xbd28264c	-0.041052148
241	0x3d264f75	0.04060312
242	0xbe1fc537	-0.15602575
243	0x3d09415d	0.0335096
244	0xbb85e35b	-0.004085941
245	0xbd050184	-0.03247215
246	0xbefddd2c	-0.49582803
247	0xbd9d0c2b	-0.076683365
248	0xbf0a0ddf	-0.53927416
249	0xbe0dbe3e	-0.13842103
250	0xbe284cc2	-0.16435531
251	0xbd0e5916	-0.034752928
252	0xbc810c3d	-0.015752906
253	0xbef7d605	-0.4840547
254	0xbc6e6ed9	-0.014552795
255	0xbdc54de9	-0.09634001

fc2.bias f4 [128]
0	0x3e29face	0.1659958
1	0x3e0b3647	0.13594924
2	0xbe019cb2	-0.12657431
3	0x3e110cd3	0.14165048
4	0x3c874136	0.016510587
5	0x3e107f58	0.14111078
6	0x3d05d7b1	0.032676402
7	0x3da90fc5	0.08254961
8	0x3d45cc11	0.048290316
9	0x3e29006d	0.16504069
10	0x3e0c2a85	0.13688095
11	0x3e322276	0.17395958
12	0x3d4882af	0.048952755
13	0x3d1404b3	0.036137294
14	0x3dec0012	0.11523451
15	0x3db10ffc	0.08645627
16	0xbdf45388	-0.11929995
17	0x3dd85f91	0.10565103
18	0x3d82578b	0.06364354
19	0xbe90aceb	-0.28256926
20	0xbd3817a0	-0.044944406
21	0x3db85346	0.09000258
22	0x3d214647	0.039373662
23	0xbe8a0ea3	-0.26964292
24	0x3e04ea73	0.1298006
25	0x3dc791da	0.09744616
26	0xbe447345	-0.19184597
27	0x3e132bff	0.14372252
28	0x3df1ba86	0.11803155
29	0x3e311b9d	0.1729569
30	0x3db4e679	0.08833022
31	0x3e1a9b3c	0.1509828
32	0x3dfca416	0.123359844
33	0x3e05aa36	0.13053212
34	0xbda77b51	-0.081778176
35	0x3e04f50d	0.12984104
36	0x3df3122b	0.118687
37	0x3e4b163f	0.19832705
38	0x3e03d929	0.12875809
39	0xbdaa2eeb	-0.0830973
40	0x3d575a23	0.052576195
41	0x3e34a50c	0.17641085
42	0xbd64fb62	-0.0559038
43	0x3e121a39	0.14267816
44	0xbe08c8f8	-0.13357913
45	0x3deed12f	0.11660992
46	0xbdefdb4f	-0.11711752
47	0x3e538f63	0.20660166
48	0x3e17cf54	0.14825183
49	0xbed13fa3	-0.40868863
50	0x3e25efe8	0.16204798
51	0xbe0e377a	-0.1388835
52	0xbd9b3973	-0.07579317
53	0x3ca7dfdc	0.020492487
54	0x3c3b9213	0.011448401
55	0x3d06f0b2	0.03294439
56	0x3dd43339	0.103613324
57	0x3e15d868	0.14633334
58	0x3d7d997f	0.061913963
59	0x3d899ac5	0.06718973
60	0xbcd32cee	-0.02577826
61	0x3dba1119	0.09085292
62	0x3db4ad60	0.08822131
63	0x3a4e162b	0.00078615797
64	0x3e263687	0.16231738
65	0x3c6dd418	0.014515899
66	0xbcfc216f	-0.030777661
67	0xbe0deffc	-0.13861078
68	0x3e1cb702	0.15304187
69	0xbd5ccd41	-0.053906683
70	0x3df0640d	0.11737833
71	0x3d11a0d8	0.035553783
72	0x3d294f54	0.04133542
73	0x3e057807	0.13034068
74	0xbea150ca	-0.3150695
75	0x3e187fe1	0.14892532
76	0x3e13a307	0.14417659
77	0x3de3121c	0.110874385
78	0x3c7a0713	0.015260476
79	0xbdaba9bc	-0.08381984
80	0x3e03dbf5	0.12876876
81	0xbde87a96	-0.113515064
82	0x3e23eaeb	0.16007583
83	0x3d9d2d98	0.07674712
84	0x3e1e3562	0.15450051
85	0x3d524837	0.0513384
86	0x3d22402a	0.039611973
87	0xbe0138d5	-0.12619336
88	0x3dcbcd08	0.09951216
89	0x3d80e7de	0.06294225
90	0x3cc0d72d	0.023540104
91	0x3e18c77b	0.14919846
92	0x3de187ee	0.11012255
93	0x3dc016bb	0.093793355
94	0x3c85c1b7	0.016327722
95	0xbe08801f	-0.13330124
96	0x3ddc4a2d	0.107563354
97	0xbd9e54a6	-0.07730989
98	0x3e3170f7	0.17328249
99	0x3df80837	0.12110942
100	0x3d4ec78f	0.050483283
101	0x3db34d9c	0.08755037
102	0xbdd4c04d	-0.10388241
103	0xbd80d5c3	-0.06290772
104	0xbd941bff	-0.07231902
105	0x3e189012	0.14898708
106	0xbd97a62f	-0.07404744
107	0x3df818c1	0.121140964
108	0x3e04e997	0.12979732
109	0xbc05ef04	-0.008174662
110	0x3e1db38a	0.1540052
111	0xbbe7274e	-0.007054246
112	0x3e07a9e2	0.13248399
113	0x3de489f0	0.11159122
114	0x3e2c0899	0.16800155
115	0x3df07e28	0.117428124
116	0x3d604ac2	0.054758795
117	0xbdadef1c	-0.08492872
118	0x3e139719	0.14413108
119	0x3deb09d7	0.11476486
120	0x3cb602c9	0.022218125
121	0x3e00b121	0.1256757
122	0x3e2bb430	0.16767955
123	0x3dfd2efa	0.12362476
124	0x3e4031d7	0.18769012
125	0xbe1619e1	-0.1465831
126	0x3e135315	0.14387162
127	0xbd8160b5	-0.063172735

fc3.weight f4 [4, 128]
0	0x3d3feef2	0.046858735
1	0xbe5f02b8	-0.21778381
2	0xbd9fd457	-0.078041725
3	0x3d437177	0.04771563
4	0x3d9ad97b	0.07561012
5	0x3d8c8692	0.06861605
6	0x3d99a190	0.07501519
7	0x3d418ddd	0.047254432
8	0x3dd603b8	0.10449928
9	0x3d1e3c10	0.0386315
10	0xbda2fa5b	-0.07957908
11	0xbe2ec1cc	-0.17066115
12	0x3dcb8564	0.099375516
13	0xbdb96ced	-0.09053979
14	0xbd62faed	-0.055415083
15	0x3db664ff	0.08905982
16	0xbe742417	-0.23841892
17	0xbe5bdfb1	-0.2147205
18	0xbe067ff6	-0.1313475
19	0xbe24c3c8	-0.1609031
20	0xbd930b69	-0.07179911
21	0x3d84df95	0.064879574
22	0xbe0a02a3	-0.13477568
23	0xbcec195e	-0.02882069
24	0x3da467a7	0.080275826
25	0xbd8872da	-0.06662531
26	0xbd8bd425	-0.06827573
27	0x3d9a4896	0.07533376
28	0x3d511506	0.05104544
29	0x3dbcf623	0.09226634
30	0x3d8def75	0.069304384
31	0x3d801b5d	0.06255219
32	0xbe22810c	-0.1586954
33	0x3d608262	0.054811843
34	0x3d268b06	0.040659927
35	0x3d50e143	0.050996076
36	0x3d049289	0.03236631
37	0xbde4c3e0	-0.11170173
38	0xbe377d7f	-0.17918967
39	0xbc37f852	-0.011228638
40	0x3dd60a50	0.10451186
41	0x3d92f317	0.07175272
42	0xbdb9c88a	-0.09071453
43	0x3d74318f	0.059617575
44	0xbae72fad	-0.001763811
45	0x3d0c003b	0.034179907
46	0xbcb78f4f	-0.022407202
47	0x3d30b927	0.043145325
48	0x3d23889c	0.039925203
49	0xbe9999cd	-0.30000153
50	0x3dc5dc00	0.09661102
51	0xbd9f5713	-0.0778028
52	0xbd348433	-0.044071387
53	0x3e0764b3	0.13222007
54	0xbce6214b	-0.028092047
55	0x3d85fb1f	0.06542038
56	0xbd65d264	-0.056108847
57	0x3d4ba569	0.049718294
58	0xbe52d27d	-0.20588107
59	0x3da87162	0.08224751
60	0x3ca7b00c	0.020469688
61	0x3d653aef	0.055964407
62	0x3d30f747	0.043204572
63	0x3db3bd86	0.08776383
64	0x3d55ecc3	0.052227747
65	0xbd8fa7a8	-0.070144
66	0xbe3581f1	-0.1772535
67	0xbc940b57	-0.018071814
68	0x3d3ecfbc	0.04658483
69	0xbe94f8a7	-0.29095957
70	0x3d170034	0.036865428
71	0x3d46f68d	0.048574973
72	0x3e10dbb2	0.14146307
73	0x3d189583	0.03725196
74	0xbe1771e2	-0.14789537
75	0x3d3b4641	0.045721296
76	0xbe50631b	-0.20350306
77	0x3d2ceb5e	0.04221665
78	0xbd4ab16c	-0.04948561
79	0xbe98e071	-0.29858735
80	0x3d6b0531	0.057377998
81	0xbd4c2ab0	-0.049845397
82	0x3d194b66	0.03742542
83	0x3da30860	0.07960582
84	0x3d956182	0.07293989
85	0x3d4607e1	0.048347358
86	0x3d94c6e4	0.07264498
87	0xbbfab4f4	-0.007650966
88	0x3d30111a	0.04298506
89	0xbdd5f8e4	-0.10447863
90	0x3d1133dc	0.035449848
91	0x3d496012	0.049163885
92	0x3d48f86d	0.049065042
93	0x3d18b674	0.037283376
94	0x3da9ba3e	0.08287476
95	0xbce16bed	-0.027517283
96	0x3d55474e	0.052069955
97	0x3d101d38	0.035184115
98	0x3d6c749a	0.057728387
99	0x3d7ed411	0.06221396
100	0x3db39d9b	0.08770295
101	0xbdbb0e11	-0.09133542
102	0x3e00dc70	0.1258409
103	0xbdbd1b16	-0.09233682
104	0xbdd78332	-0.105230704
105	0x3d495420	0.049152493
106	0xbd316d52	-0.043317147
107	0x3d517d44	0.051144853
108	0x3dabd435	0.08390085
109	0xbe9cee0e	-0.3065037
110	0x3d2b1989	0.0417724
111	0xbdf8b605	-0.121440925
112	0x3d5e8ea5	0.054335255
113	0x3dcc25ce	0.09968148
114	0xbe1a4776	-0.15066323
115	0xbca452bb	-0.02005898
116	0xbdff67d2	-0.12470974
117	0x3d28cb24	0.041209355
118	0x3daaa7ab	0.083327614
119	0xbe1ec9eb	-0.15506713
120	0xba950d69	-0.0011371794
121	0x3dbd4d68	0.0924328
122	0x3d994659	0.07484121
123	0x3d319cd3	0.04336245
124	0x3d51a689	0.05118421
125	0xbc49b44d	-0.012311053
126	0xbe4ba0ab	-0.19885509
127	0xbdd9f20c	-0.1064187
128	0x3d3d584e	0.046226792
129	0xbe4de7ea	-0.20108
130	0xbc4f1a0f	-0.01264049
131	0x3d197d7c	0.037473187
132	0x3da85620	0.08219552
133	0x3d792deb	0.060834806
134	0x3d994c9d	0.07485316
135	0x3d3bb232	0.045824237
136	0x3d773a42	0.060358293
137	0x3cd151b6	0.025551658
138	0xbdfaa1e0	-0.122379065
139	0xbe32eebb	-0.17473881
140	0x3dc26e99	0.09493751
141	0xbccb4ec5	-0.024817834
142	0xbd4524d2	-0.048130818
143	0x3dd73dec	0.105098575
144	0xbda9598c	-0.08269033
145	0x3bf0218d	0.0073282183
146	0x3cfb8c04	0.030706413
147	0xbdabef0c	-0.08395204
148	0xbcc6a504	-0.024248607
149	0x3d84b96d	0.0648068
150	0x3cd521b2	0.026017044
151	0xbc8972f8	-0.016778454
152	0x3dc45980	0.09587383
153	0x3d03c964	0.032174483
154	0x3cff0843	0.03113187
155	0x3daaf712	0.08347906
156	0x3d871172	0.06595124
157	0x3e082279	0.132944
158	0x3d91ddc3	0.07122376
159	0x3d39b6d7	0.045340385
160	0x3c646ef8	0.013942473
161	0x3d7151ce	0.058915906
162	0xbd47a89b	-0.04874478
163	0x3d0815b1	0.03322381
164	0x3d07cad4	0.033152416
165	0xbe5a1b7d	-0.21299548
166	0xbe209320	-0.15681124
167	0x3e0c2a70	0.13688064
168	0x3e0bc660	0.13649893
169	0x3dba53c3	0.090980075
170	0x3dd32898	0.10310477
171	0x3d6eaa17	0.05826768
172	0xbc6019ae	-0.0136779975
173	0x3d3eb7bc	0.04656194
174	0x3a88c984	0.0010436033
175	0x3d6036ad	0.054739643
176	0x3d1f9601	0.038961414
177	0xbe8b8efa	-0.2725752
178	0x3d9ff00e	0.07809459
179	0x3b8c1f08	0.00427616
180	0x3ab5ba1a	0.0013864667
181	0x3db8a4e6	0.09015827
182	0x3e23bd34	0.15990144
183	0x3d196ca1	0.037457112
184	0xbd66bb21	-0.056330804
185	0x3d3aa4c8	0.045567304
186	0xbc5849f1	-0.013201223
187	0x3e06ca22	0.13163045
188	0x3df87983	0.121325515
189	0x3d2c488c	0.042061374
190	0x3d092578	0.033483
191	0xb908f0ff	-0.00013059749
192	0x3d23ca7f	0.039988037
193	0x3d42c5ca	0.047551908
194	0xbdd82203	-0.10553362
195	0xbc04a0c5	-0.008094971
196	0x3d39265a	0.04520259
197	0xbd939e44	-0.07207921
198	0x3d361001	0.044448856
199	0x3dea67ee	0.11445604
200	0x3dab502b	0.083649
201	0x3d6bc2d8	0.057558864
202	0xbd91880b	-0.07106026
203	0x3d361c31	0.04446048
204	0xbda2e006	-0.07952885
205	0x3d107cfa	0.035275437
206	0x3ce7d62e	0.028300371
207	0xbcd80df9	-0.02637385
208	0x3d7fc07f	0.062439438
209	0xbbec3602	-0.0072085867
210	0x3d5aa2bc	0.05337785
211	0x3df70b4d	0.12062702
212	0x3d919639	0.07108731
213	0x3d62b18d	0.055345107
214	0x3dd96969	0.106158085
215	0xbd02ab5a	-0.031901695
216	0x3d2f30ea	0.042771257
217	0x3dbba9e7	0.09163266
218	0x3dd0695e	0.10176347
219	0x3d97b171	0.07406891
220	0x3d3c40ec	0.04596035
221	0x3d2862d2	0.041109867
222	0x3dba6025	0.09100369
223	0x3d428b9c	0.047496423
224	0x3ce10efe	0.02747297
225	0xbe35bf63	-0.1774879
226	0x3d636e82	0.05552531
227	0x3d965610	0.07340634
228	0x3d94b132	0.0726036
229	0xbdbe084d	-0.09278927
230	0x3e140172	0.14453676
231	0xbe085dba	-0.13317004
232	0xbe4ce402	-0.20008853
233	0x3d6061e2	0.05478085
234	0xbda9bc50	-0.08287871
235	0x3d07f6e1	0.033194426
236	0x3da9d441	0.08292437
237	0x3d166043	0.036712896
238	0x3d1476dc	0.036246166
239	0x3cff689b	0.03117781
240	0x3d580d5b	0.05274711
241	0x3e164052	0.14672974
242	0xbe34f140	-0.17670155
243	0x3dc8936d	0.09793744
244	0xbdbedda4	-0.09319618
245	0x3e159dfe	0.1461105
246	0x3dce285b	0.10066291
247	0xbc59c720	-0.013292104
248	0x3db882a7	0.09009295
249	0x3dbefe50	0.0932585
250	0x3d10347e	0.03520631
251	0x3d6429de	0.05570399
252	0x3d934d32	0.07192458
253	0x3c23ace3	0.00998995
254	0xbdfa200b	-0.12213143
255	0xbd8e037f	-0.069342606

fc3.bias f4 [4]
0	0x3f6f0a06	0.9337467
1	0x3f4039d2	0.75088227
2	0x3f4db3c8	0.8035245
3	0x3f4f37df	0.8094463
